orchestrator/popularity.pt (torch, 7993 bytes, 5 tensors)

lstm.weight_ih_l0 f4 [64, 1]
000000 4b 71 44 3e e3 2c 15 3d ab 2f fe 3d 1c 50 49 3e
       0.19183843 0.03641976 0.12411436 0.19659466
000010 46 4c da bd 05 e1 73 3e c4 2d 8e be 25 22 83 bd
       -0.10659079 0.23816307 -0.2776929 -0.06402997
000020 d9 f8 21 3e 3f 76 3e bc 1f 97 22 bd 51 f7 9e bd
       0.15817584 -0.011624872 -0.0396949 -0.077620156
000030 7d 99 41 bd 9d 5c 9b 3d 3f 7c 19 be e5 ad 66 bd
       -0.04726552 0.07586024 -0.14988802 -0.056318182
000040 c5 0f da bc 19 8b cf 3d 58 4a 38 3e 4c 27 50 3d
       -0.026618848 0.10133953 0.1799711 0.050818726
000050 97 d1 29 ba e4 7f 27 3e 83 cb c7 bd 7e 50 84 3e
       -0.00064780697 0.1635738 -0.09755614 0.2584266
000060 ae 03 3c 3e 1d dd f0 3c 93 42 83 be 22 90 76 3e
       0.18360779 0.02940231 -0.2563673 0.2407842
000070 aa 4b e0 3d ca 23 1b 3c 34 d2 49 3e 15 d1 26 3e
       0.10951932 0.009468982 0.19709092 0.16290696
000080 42 a7 64 be 8e 33 1e 3e 88 7f 81 be d6 1c 1b ba
       -0.22329429 0.15449354 -0.2529261 -0.00059170777
000090 c2 23 32 bd 05 2f 41 be f1 02 1d 3e 65 cb a7 3d
       -0.043491133 -0.18865593 0.15333153 0.08193091
0000a0 9a e3 7b 3d 43 df 3a be 1f 97 15 3b b5 5f 07 be
       0.061496355 -0.1824923 0.002282567 -0.13220103
0000b0 98 4c 25 bd 48 97 54 be 29 1d 28 3e ca ea 74 be
       -0.04035625 -0.20760834 0.16417374 -0.2391769
0000c0 e1 fb 88 3d 02 72 9b 3d 36 3e 6f 3e 18 63 1d 3d
       0.06688667 0.07590105 0.23363575 0.03842458
0000d0 15 4b c3 bd 7e 05 33 3d af d0 eb 3d 28 21 b5 3e
       -0.09535805 0.04370641 0.115144126 0.3537686
0000e0 26 55 a7 3d 5c b7 93 3e c4 97 d4 3c 9b 13 8d 3e
       0.08170538 0.2885083 0.025951274 0.2755402
0000f0 a9 c5 51 3e ad 2c bf 3d c1 51 2b 3e 8d 19 b7 3e
       0.20485558 0.09334693 0.16730405 0.3576168

lstm.weight_hh_l0 f4 [64, 16]
000000 25 c1 a9 3d a0 f1 8e 3e 12 8a ce ba 7c 6c df 3c
       0.082887925 0.2791872 -0.0015757701 0.027273409
000010 d6 b7 29 3e aa 82 d1 bd 9b 62 90 3e a9 81 e6 3d
       0.16574034 -0.1023 0.2820023 0.112551995
000020 3c c8 3d 3d db 5b 6f 3d 03 74 71 3e 04 cc a6 be
       0.046333537 0.05843721 0.23579411 -0.32577527
000030 70 16 17 3e 8c 9e 6e 3d bd 3b 6e 3d ad e9 6e be
       0.14754653 0.05825667 0.05816244 -0.23331328
000040 59 bd 84 3d be 8f 12 be 44 c2 2e 3e 2d aa 3f 3e
       0.06481428 -0.14312646 0.17066294 0.1871726
000050 56 dc 3a be 41 d9 32 bd cf 5e 7e bd ab 66 86 bd
       -0.18248114 -0.04366422 -0.062102135 -0.06562551
000060 54 c0 f4 3b ae 49 eb 3d 10 bc 2a 3e 4c 6b 6b be
       0.0074692164 0.11488663 0.16673303 -0.2299015
000070 47 7a 61 be 88 77 ef bd a3 cf cc 3d 56 2a 24 be
       -0.22019301 -0.11692721 0.10000541 -0.16031775
000080 11 5b 65 be ac 7c 12 3d 13 25 b0 bd d7 05 86 3e
       -0.2239802 0.035763428 -0.08600821 0.2617633
000090 c7 44 d3 3d 97 58 9e 3d 45 94 9c bd 8e 83 de 3d
       0.103158526 0.07731741 -0.07645468 0.10864936
0000a0 92 a5 73 3c 10 00 e1 bd 9d 7c f2 3d ae 98 2f be
       0.014871018 -0.1098634 0.11840174 -0.17148086
0000b0 40 28 27 3e aa 57 f9 3d 9a e9 45 3e 50 21 4d 3d
       0.16323948 0.12174924 0.19327393 0.050080597
0000c0 31 2d 5b 3e 75 47 85 bd d8 04 55 be b2 95 23 be
       0.21403958 -0.0650777 -0.20802629 -0.15975073
0000d0 14 2e 16 bd 1a 13 de bc eb b3 66 be 6d 39 27 3e
       -0.036665037 -0.027108718 -0.22529571 0.163305
0000e0 92 5f 75 be 1e 0e 53 bd ee 9b dd bd 90 3a 6a be
       -0.23962238 -0.051527135 -0.10820757 -0.22873902
0000f0 fe 5d ae be 69 6f d3 3d 4e 6a 79 3e c4 c6 7b be
       -0.34056085 0.10323984 0.24356958 -0.24587542
000100 f9 9d 51 3e 9e 31 aa bd 7b 2b 19 3e 3e cc 30 3d
       0.20470418 -0.08310245 0.14957993 0.04316353
000110 2a ca ed 3d 1f 59 9a 3e 87 1e bb bd ac 18 e2 bd
       0.11610825 0.3014612 -0.09136682 -0.11039862
000120 96 bb b7 bd 4f 05 81 3e 93 b1 43 be 68 4c bc 3d
       -0.08971326 0.25199363 -0.19110708 0.09194261
000130 d9 07 74 bd c2 24 16 3e 7d f9 84 bd 36 07 93 bb
       -0.059577797 0.1466246 -0.064928986 -0.0044869436
000140 59 f0 8c be c7 9e 72 3d 9a 1c f6 3c 86 fc cd bd
       -0.2752712 0.059233453 0.030042935 -0.10057931
000150 5e 8f 48 3e 65 f1 5a bb 8c 8a 07 be 94 11 0a 3e
       0.1958594 -0.0033408043 -0.13236445 0.13483268
000160 22 78 3e 3e 15 ad dc bd ff bb 6d 3e 83 b4 01 3d
       0.18600515 -0.107752 0.23216246 0.03166629
000170 c5 f9 29 be 08 4d 27 be 9f d0 83 bd 2b ab 74 be
       -0.16599186 -0.16337979 -0.06436276 -0.2389342
000180 bf 52 dd 3d 77 16 59 3c 1c 5a 32 3e 78 bc 56 3e
       0.10806798 0.013249985 0.17417186 0.20970333
000190 77 cd 91 3c a3 a2 cc 3d bf 95 9b 3d 79 41 90 be
       0.017798169 0.09991958 0.07596921 -0.28174952
0001a0 0e e2 8b be e0 72 89 3e cf 4d 1d bc a8 da d4 3d
       -0.27320904 0.26845455 -0.009601071 0.10393268
0001b0 fb de 15 be 4e 25 41 3d 1e 23 94 bd 10 7c 4c bd
       -0.14635842 0.047154717 -0.072332606 -0.049923003
0001c0 14 90 9e be 7a e8 95 3e 97 a9 9b 3d b5 0f 1c 3e
       -0.30969298 0.29278928 0.07600706 0.15240367
0001d0 26 94 e9 b9 c0 5d 0e be 1e 1f 8d 3e b5 0a 61 bd
       -0.00044551602 -0.1390295 0.27562803 -0.05494185
0001e0 98 7e 49 3e 5b f4 4c 3d 44 ae 82 bc 45 67 89 be
       0.19677198 0.050037723 -0.015952237 -0.268366
0001f0 66 21 1f be b1 a1 2d 3d bb de 44 bc 3f 8c 00 be
       -0.15540084 0.04239053 -0.012015994 -0.125535
000200 67 3c 43 3d ff e8 32 be c2 3f 04 3d f0 c4 ad 3d
       0.047665026 -0.17471693 0.032287367 0.084848285
000210 48 6c cf bd e5 41 30 3e 7d 6c 55 3e e6 ea d1 3d
       -0.10128075 0.17212637 0.20842166 0.102498814
000220 d8 58 db 3d 0b 44 0e be d5 47 57 3e 48 80 65 bd
       0.10710305 -0.13893144 0.21023495 -0.05603054
000230 1f 55 4e 3e 91 74 c5 3c cd 20 04 be c5 a4 63 be
       0.20149659 0.024103435 -0.12903138 -0.22230823
000240 85 36 c1 bd c6 b4 a2 3e e2 ac 31 3d 67 db 33 3e
       -0.09434227 0.31778544 0.043377765 0.17564164
000250 89 5e 7b be 8b 6e 30 be 78 6b 07 be 7f d6 f5 bd
       -0.24547781 -0.17229669 -0.1322459 -0.120038025
000260 26 7e 7b 3e 3d 22 82 be 21 6c f2 3d da c1 10 3d
       0.2455984 -0.25416747 0.1183703 0.03534112
000270 b3 1e 26 3e 80 5e b5 bd a8 2b 9c 3e ef 7f 71 3c
       0.16222648 -0.08855915 0.30502057 0.014739974
000280 f9 74 b6 3d d4 00 59 3d 5d 44 77 3d a0 b0 cf bd
       0.089090295 0.052979305 0.06036793 -0.101411104
000290 56 50 2e bc ac 31 04 3d ea 63 a0 3d 74 60 34 3e
       -0.010639271 0.032273933 0.07831557 0.17614919
0002a0 d6 3f 37 3e da 86 87 3e a6 d9 cc 3c da a5 45 3e
       0.17895445 0.2647007 0.025006127 0.19301549
0002b0 e3 13 55 3d c3 7d 90 bd ee 31 2e be 2e 82 a0 bc
       0.05202092 -0.07055237 -0.17011234 -0.019593325
0002c0 7b 3a bd 3c e7 c5 5e 3d 41 77 b4 be ee 14 7a 3d
       0.023099175 0.054387953 -0.35247234 0.061055116
0002d0 6a 54 4c 3e 10 13 08 be e3 ec e0 3d 6e f9 43 3e
       0.19954076 -0.13288522 0.109826826 0.19138119
0002e0 b2 6d c1 3e 0d 53 74 3d 97 bd 55 3e 9a 21 34 be
       0.37779003 0.059649516 0.20873104 -0.17590943
0002f0 77 a3 05 be f0 55 a5 be 19 4b c9 bd fb 26 bb bc
       -0.13050638 -0.32292128 -0.09828777 -0.022845736
000300 a2 c9 96 be ee 34 4c 3e 8c 8c 0c 3e d8 1c 17 3e
       -0.2945071 0.19942066 0.1372549 0.14757097
000310 d5 7c 5e be bc 56 0a be 9a 67 69 be e0 55 44 bd
       -0.21727307 -0.13509649 -0.22793427 -0.04793346
000320 10 5e 47 3e a9 cc 6b bc 2e 2f 11 be 3c a5 ae bd
       0.19469476 -0.0143920565 -0.14178154 -0.0852761
000330 b1 00 90 be 70 5b 1d 3e c0 75 ae 3d 65 59 12 be
       -0.28125528 0.15366912 0.08518553 -0.14291914
000340 6b 62 1f 3e 6e fa a3 bd 99 4a 90 be 7f 32 1f be
       0.15564887 -0.0800675 -0.28181913 -0.15546606
000350 18 29 22 be 96 c8 39 bd ed 81 9e 3d 6e aa 8c 3e
       -0.15835989 -0.04535731 0.07739625 0.27473778
000360 dc 8a 2f 3e a1 e0 2c 3b bf a2 ae bc 77 9b 62 3d
       0.17142814 0.0026379006 -0.021317838 0.055324044
000370 38 37 75 3d 35 cc bd bd 8c fa 60 bc c7 6b c3 bd
       0.059867114 -0.09267465 -0.01373161 -0.09542041
000380 ba bf 1c be b7 13 44 3e aa 07 46 bd d4 95 e9 bb
       -0.15307513 0.19148146 -0.048347153 -0.0071284566
000390 53 b9 55 be 1e 5e 6e be 32 f5 11 be 99 ee 28 3e
       -0.20871477 -0.2327809 -0.14253691 0.16497268
0003a0 44 cf a3 3e d6 ae cc bd b3 e0 0d be 46 cb b5 be
       0.3199407 -0.09994285 -0.13855247 -0.35506648
0003b0 9e 31 c5 be ba 57 91 be cf ff ec bb 8f 16 8c be
       -0.38514417 -0.28387243 -0.007232643 -0.2736096
0003c0 85 d9 67 be 21 e0 9f 3d 37 b0 9c be 94 e2 28 3e
       -0.22641571 0.07806421 -0.3060319 0.16492683
0003d0 11 7b 67 bd 95 a8 2c be 65 57 06 be cf c4 3e bd
       -0.05651385 -0.16861184 -0.13119276 -0.04657441
0003e0 ce d4 a0 3e d1 59 01 be 11 28 e9 3d 6b ba 76 3d
       0.31412357 -0.12631918 0.11384595 0.060236376
0003f0 1e bb df bd e5 12 71 3c a8 93 6c 3e 22 b1 cf 3d
       -0.10924362 0.014713977 0.23103201 0.10141207

lstm.bias_ih_l0 f4 [64]
000000 99 5c 94 3e 0f b2 98 bd 00 47 7e 3c 17 b9 4d be
       0.28976896 -0.07455837 0.015519857 -0.20090137
000010 f5 ca aa bc 68 61 4c bd 65 f3 dd bd 91 3c a2 3e
       -0.02084873 -0.04989758 -0.108374394 0.31686834
000020 ec c2 d5 3d 11 1e 83 3e 2c e0 27 be 1f 79 a7 3e
       0.10437569 0.25608876 -0.16394109 0.32709596
000030 45 14 6d 3d 9b e8 f7 bd 83 a7 1c 3d 0c 86 f2 3d
       0.05788066 -0.12104913 0.03824569 0.11841974
000040 fb 10 56 3e 53 9c 16 be 99 0a 0d be e3 19 12 3e
       0.20904915 -0.1470807 -0.13773574 0.14267687
000050 8c d8 7a be 3c e5 c3 3c e3 41 e2 3d f0 00 6a bd
       -0.24496669 0.023913018 0.11047723 -0.0571298
000060 41 13 7a 3e 22 c4 3f 3e a0 c3 05 be f7 8e f0 bd
       0.24421407 0.18727162 -0.13062906 -0.117460184
000070 ab f7 3b 3e 1f a9 d9 bd cc c0 1b 3e da a7 70 bc
       0.18356197 -0.106279604 0.15210265 -0.014688456
000080 31 d3 ca 3c 94 c3 61 3e e2 fd ed bc 2b d8 80 be
       0.024758907 0.22047263 -0.029051725 -0.25164923
000090 39 8f 05 be 78 43 d6 bd 4b a2 71 be 03 2c 8e bd
       -0.13042916 -0.104620874 -0.23597066 -0.06941988
0000a0 a8 1a e9 bd 4f bd 45 bd 18 a9 98 be ee 7e 14 be
       -0.113820374 -0.048276242 -0.29816508 -0.14501545
0000b0 8c 4f a9 be f6 b1 cf bb f9 f4 69 be 94 65 19 3e
       -0.33068502 -0.0063383533 -0.22847356 0.14980155
0000c0 e3 59 0c 3d 7f c3 44 3e 44 f1 7c 3e c0 e3 6a 3e
       0.03426541 0.19215201 0.2470141 0.22938442
0000d0 7d 82 92 bd b6 5c 80 bd 30 73 d1 3d 87 ff 03 3e
       -0.07153795 -0.06267683 0.102270484 0.12890445
0000e0 a1 89 b1 3e 5b 45 72 3d 5e a3 21 be bc 37 7d bc
       0.34675315 0.059148174 -0.15784976 -0.015455183
0000f0 74 09 98 3e dc 99 1f bd 3c 23 24 3d 21 17 4d 3e
       0.29694712 -0.03896509 0.040072665 0.20028354

lstm.bias_hh_l0 f4 [64]
000000 7e c7 f8 3d 97 03 d1 bd 1c fe 36 bd 67 11 7a bd
       0.12147425 -0.10205763 -0.04467593 -0.061051752
000010 d7 d9 84 be 9f 18 bf 3d 8f 8d 13 3e 1c 8c 2d bd
       -0.2594745 0.09330868 0.14409469 -0.042369947
000020 45 60 e1 bd c3 b4 1d 3e e7 b4 48 3e 11 36 83 3e
       -0.1100469 0.15400986 0.19600259 0.25627187
000030 ed 47 f8 3c 12 9c 6f bd 26 cc 6a 3e e7 41 92 bd
       0.030307734 -0.05849845 0.22929439 -0.07141476
000040 dd 61 8a 3e 4f 55 36 bd d7 ee e4 3c cb ec 59 be
       0.2702779 -0.04451495 0.027945919 -0.21281736
000050 02 de c0 bd b4 a5 0a 3e 28 1f 1c be ac 53 11 3e
       -0.09417345 0.13539773 -0.1524626 0.14192075
000060 44 ff 36 3e 5c 4a 4a 3e f5 a6 2a be 77 a5 59 3e
       0.17870814 0.19754928 -0.16665252 0.21254526
000070 19 8f ee 3d db 4b 23 3e 28 ac ff 3d 09 22 84 3e
       0.116483875 0.15946905 0.12484008 0.25807217
000080 d5 da 0d 3e ac 15 5d be 40 d4 e4 3d 0d 92 9a bd
       0.13853009 -0.21590298 0.11173296 -0.07547388
000090 d5 fc 83 3d c0 62 27 3e ff 4a 44 be 18 71 7c 3e
       0.06444708 0.16346264 -0.19169234 0.24652517
0000a0 44 94 8b 3d 6e df de 3d 53 12 a5 be 85 70 63 be
       0.06815389 0.108824596 -0.32240543 -0.22210892
0000b0 c9 05 a4 be 32 ba 48 bd 5c c1 55 3e b5 16 5c 3e
       -0.32035664 -0.049005695 0.20874542 0.21493037
0000c0 de 1d 52 3e 4d 43 5e 3e d2 bb 37 3e 68 f8 35 be
       0.20519206 0.2170536 0.17942742 -0.1777054
0000d0 b8 b8 2f be a7 d1 6b 3e 2f 17 68 bd 39 f6 20 3e
       -0.17160308 0.23029195 -0.056662735 0.15718926
0000e0 f5 94 b1 bd 5a 1b 8e 3d 80 60 db bb 99 f5 fd bd
       -0.086709894 0.06938811 -0.0066948533 -0.1240036
0000f0 8e b6 17 be 2e 97 69 3e 5e 04 ee bd 57 4d ad 3e
       -0.14815733 0.22811577 -0.11621927 0.33848068

fc.weight f4 [1, 16]
000000 37 71 cb be a8 78 b9 3e 87 25 5d be 15 c1 24 be
       -0.39734814 0.36224866 -0.21596347 -0.1608928
000010 68 55 8c 3d 89 e5 d2 be 65 21 ea bc 43 55 c5 3e
       0.068522274 -0.41190746 -0.028580377 0.38541612
000020 00 55 a6 3e e1 ff 53 be ca e9 ba bc 67 12 9e be
       0.32486725 -0.20703079 -0.022816557 -0.30873415
000030 78 50 37 be 18 f1 99 be d9 5f 06 3e 5d c1 8e be
       -0.1790179 -0.30066752 0.131225 -0.278819
